…
Sat 13 Sep 2025 21:34:52 INFO  [1;35mBuild[0m[1;33m [SequentialFullDataLoader][0m for [1;33m[evaluation][0m with format [1;33m[InputType.POINTWISE][0m
Sat 13 Sep 2025 21:34:52 INFO  [1;35mEvaluation Setting:[0m
	[1;34mGroup by[0m user_id
	[1;34mOrdering[0m: {'strategy': 'by', 'field': 'timestamp', 'ascending': True}
	[1;34mSplitting[0m: {'strategy': 'loo', 'leave_one_num': 2}
	[1;34mNegative Sampling[0m: {'strategy': 'full', 'distribution': 'uniform'}
Sat 13 Sep 2025 21:34:52 INFO  [1;35m[evaluation][0m[1;36m batch_size[0m = [1;33m[256][0m, [1;36mshuffle[0m = [1;33m[False]
[0m
Sat 13 Sep 2025 21:34:59 INFO  RAMRec(
  (item_embedding): Embedding(1350, 64, padding_idx=0)
  (position_embedding): Embedding(50, 64)
  (trm_encoder): TransformerEncoder(
    (layer): ModuleList(
      (0): TransformerLayer(
        (multi_head_attention): MultiHeadAttention(
          (query): Linear(in_features=64, out_features=64, bias=True)
          (key): Linear(in_features=64, out_features=64, bias=True)
          (value): Linear(in_features=64, out_features=64, bias=True)
          (attn_dropout): Dropout(p=0.5, inplace=False)
          (dense): Linear(in_features=64, out_features=64, bias=True)
          (LayerNorm): LayerNorm((64,), eps=1e-12, elementwise_affine=True)
          (out_dropout): Dropout(p=0.5, inplace=False)
        )
        (feed_forward): FeedForward(
          (dense_1): Linear(in_features=64, out_features=256, bias=True)
          (dense_2): Linear(in_features=256, out_features=64, bias=True)
          (LayerNorm): LayerNorm((64,), eps=1e-12, elementwise_affine=True)
          (dropout): Dropout(p=0.5, inplace=False)
        )
      )
      (1): TransformerLayer(
        (multi_head_attention): MultiHeadAttention(
          (query): Linear(in_features=64, out_features=64, bias=True)
          (key): Linear(in_features=64, out_features=64, bias=True)
          (value): Linear(in_features=64, out_features=64, bias=True)
          (attn_dropout): Dropout(p=0.5, inplace=False)
          (dense): Linear(in_features=64, out_features=64, bias=True)
          (LayerNorm): LayerNorm((64,), eps=1e-12, elementwise_affine=True)
          (out_dropout): Dropout(p=0.5, inplace=False)
        )
        (feed_forward): FeedForward(
          (dense_1): Linear(in_features=64, out_features=256, bias=True)
          (dense_2): Linear(in_features=256, out_features=64, bias=True)
          (LayerNorm): LayerNorm((64,), eps=1e-12, elementwise_affine=True)
          (dropout): Dropout(p=0.5, inplace=False)
        )
      )
    )
  )
  (LayerNorm): LayerNorm((64,), eps=1e-12, elementwise_affine=True)
  (dropout): Dropout(p=0.5, inplace=False)
  (memory_gate): AdaptiveMemoryGate(
    (gate_net): Sequential(
      (0): Linear(in_features=128, out_features=64, bias=True)
      (1): LayerNorm((64,), eps=1e-05, elementwise_affine=True)
      (2): ReLU()
      (3): Dropout(p=0.1, inplace=False)
      (4): Linear(in_features=64, out_features=1, bias=True)
      (5): Sigmoid()
    )
  )
  (memory_attention): MemoryAugmentedAttention(
    (q_proj): Linear(in_features=64, out_features=64, bias=True)
    (k_proj): Linear(in_features=64, out_features=64, bias=True)
    (v_proj): Linear(in_features=64, out_features=64, bias=True)
    (out_proj): Linear(in_features=64, out_features=64, bias=True)
    (dropout): Dropout(p=0.1, inplace=False)
    (layer_norm): LayerNorm((64,), eps=1e-05, elementwise_affine=True)
  )
  (loss_fct): CrossEntropyLoss()
)[1;34m
Trainable parameters[0m: 214914.0
Sat 13 Sep 2025 21:36:05 INFO  [1;32mepoch 0 training[0m [[1;34mtime[0m: 66.54s, [1;34mtrain loss[0m: 2454.4816]
Sat 13 Sep 2025 21:36:18 INFO  [1;32mepoch 0 evaluating[0m [[1;34mtime[0m: 12.72s, [1;34mvalid_score[0m: 0.032200]
Sat 13 Sep 2025 21:36:18 INFO  [1;34mvalid result[0m: 
…
